Deep_ Learning/cgcnn-master/data/model_best.pth.tar (torch_old, 662435 bytes, 58 tensors)

embedding.weight f4 [64, 92]
0	0x3d41adae	0.047284774
1	0xbdde5bea	-0.10857375
2	0xbd174f49	-0.036940847
3	0xbd72a74b	-0.059241574
4	0x3de3bf81	0.11120511
5	0x3d0508b1	0.032478992
6	0x3dd3a753	0.10334649
7	0x3db0963a	0.086224034
8	0xbda7bea3	-0.08190658
9	0x3caabef5	0.020843009
10	0x3d76d103	0.060257923
11	0xbda96b76	-0.0827245
12	0xbd69c929	-0.057076607
13	0x3dac7caa	0.08422215
14	0x3d7e479f	0.062080022
15	0xbd634130	-0.05548209
16	0xbd447de6	-0.04797163
17	0xbb1e3000	-0.0024137497
18	0x3b76b940	0.0037647039
19	0x3d2653aa	0.040607132
20	0x3d54d32f	0.051959213
21	0x3d1e80a5	0.038696904
22	0x3bfc2c3c	0.007695703
23	0x3cc669c4	0.024220355
24	0x3d7b16f6	0.061301194
25	0xbd0d516c	-0.034501478
26	0x3b9cb910	0.0047828034
27	0x3c2053b3	0.00978558
28	0xbce55f6f	-0.027999608
29	0x3da6898b	0.08131703
30	0x3d24c616	0.040227972
31	0x3d4b9acd	0.049708176
32	0xbba4a140	-0.0050241053
33	0x3d59649a	0.053074457
34	0xbdb91dab	-0.09038862
35	0xbac34900	-0.0014899075
36	0x3d7b0022	0.061279424
37	0xbda852fe	-0.082189545
38	0x3dcd4d42	0.100245014
39	0xbde41bcc	-0.11138114
40	0xbe11c2c8	-0.1423446
41	0xbcfd9e35	-0.030959228
42	0x3d200ed8	0.039076656
43	0xbdd2360d	-0.102642156
44	0x3d583bae	0.05279129
45	0xbb7f8b20	-0.0038992837
46	0xbd401f00	-0.046904564
47	0xbd154a35	-0.036447722
48	0xbd4427cf	-0.047889527
49	0x3cd3b011	0.025840791
50	0x3e18542b	0.14875858
51	0xbdb05cbb	-0.08611437
52	0x3cd51071	0.026008816
53	0x3d61f29e	0.05516302
54	0x3d3d0283	0.046144973
55	0xbdd2b742	-0.1028886
56	0xbd5a9797	-0.053367224
57	0xbe10a50e	-0.14125463
58	0xbd8cd77e	-0.068770394
59	0xbdb3a836	-0.08772318
60	0xbcd8421e	-0.026398715
61	0x3c0fec95	0.008784433
62	0xbd6545ac	-0.055974647
63	0xbc2016bd	-0.009771046
64	0x3d6046b2	0.05475492
65	0xbd256a22	-0.04038442
66	0x3d954b19	0.07289714
67	0x3c5bdcd0	0.013419345
68	0xbbdda468	-0.0067639835
69	0x3dd4ba85	0.10387138
70	0x3da1f55f	0.07908129
71	0x3d97e40f	0.074165456
72	0x3c94a9f4	0.018147446
73	0x3d129a03	0.03579141
74	0x3d4bd8c0	0.049767256
75	0x3d44282c	0.047889873
76	0x3d7e3d76	0.062070332
77	0xbda9b2e5	-0.082860745
78	0xbdb17910	-0.08665669
79	0xbc9d4473	-0.019197678
80	0x3d07dbbd	0.033168543
81	0xbcc77d59	-0.024351763
82	0x3d2d9d0a	0.042386092
83	0xbd6790ed	-0.056534696
84	0x3d71bf94	0.059020594
85	0x3cb1bc7b	0.02169632
86	0x3d93ab33	0.07210388
87	0x3d1119ad	0.035424877
88	0x3cbb45c4	0.022860415
89	0x3d784b1a	0.060618497
90	0x3d32ed02	0.04368306
91	0x3b39f5e0	0.0028375313
92	0xbcd66d9b	-0.02617531
93	0xbc4b5296	-0.012409827
94	0xbc270d61	-0.010196061
95	0xbcb4f98d	-0.022091651
96	0x3d73a6e0	0.059485316
97	0xbd3616c8	-0.04445532
98	0x3d923766	0.07139473
99	0xbd41105b	-0.04713474
100	0x3cd774e5	0.026300857
101	0x3dbda814	0.09260574
102	0x3dfcf61c	0.12351629
103	0x3cd61102	0.026131157
104	0xbda35733	-0.07975616
105	0xbc6ea605	-0.014565949
106	0xbdbf4930	-0.09340131
107	0xbe0839f5	-0.13303359
108	0xbdc506b4	-0.09620419
109	0x3cc2e37c	0.023790114
110	0x3a86b700	0.0010277927
111	0x3dbacb69	0.09120829
112	0x3d483829	0.048881683
113	0xbd1c2d09	-0.038128886
114	0xbe204217	-0.15650211
115	0x3e267fa2	0.16259626
116	0x3d302c99	0.04301128
117	0x3cf64a8c	0.030064844
118	0xbd85c4c4	-0.06531671
119	0xbd456b90	-0.048198283
120	0xbced0acf	-0.028935818
121	0x3cfea86f	0.031086175
122	0x3d987508	0.07444197
123	0xbcbc8fc2	-0.023017768
124	0xbd7a0c45	-0.061046857
125	0xbd1b015c	-0.037843093
126	0xbdd13ff5	-0.10217277
127	0xbd02330e	-0.03178697
128	0x3dc183d7	0.094489746
129	0x3d92927f	0.07156848
130	0x3da824a0	0.08210111
131	0xbd70e831	-0.058815185
132	0x3d072eff	0.033003803
133	0x3d940801	0.07228089
134	0x3cb440a2	0.022003476
135	0xbd39b9d9	-0.045343254
136	0xbbc7e4b0	-0.0061002597
137	0xbb3070a0	-0.0026922598
138	0x3c8d3270	0.017235965
139	0x3d2084de	0.039189212
140	0x3cbb879f	0.022891818
141	0xbc3978b6	-0.011320284
142	0x3d0264ea	0.03183452
143	0x3ddfac02	0.1092148
144	0xbdf3f9e4	-0.11912897
145	0x3daf4108	0.085573256
146	0xbd4cfa52	-0.05004341
147	0x3d762851	0.060097042
148	0x3d893d4a	0.06701143
149	0x3dd9575e	0.10612367
150	0x3d4aff5e	0.049559943
151	0x3d2ce3a3	0.04220928
152	0xbd136ab0	-0.035990417
153	0x3ce52f88	0.027976766
154	0x3dd8d043	0.10586598
155	0x3d945a57	0.072437935
156	0xbd7164ac	-0.0589339
157	0xbd9c20ea	-0.07623465
158	0x3d2f8c4a	0.0428584
159	0x3bfec910	0.0077754334
160	0x3d7d4cb3	0.061840724
161	0x3dcc1b79	0.099661775
162	0xbdb4abf5	-0.08821861
163	0xbbaee470	-0.0053372905
164	0x3da52b99	0.08064956
165	0x3d2479d6	0.040155254
166	0xbcc67868	-0.024227336
167	0x3d6dee41	0.058088545
168	0x3d19e63a	0.037573077
169	0x3da1b8f7	0.07896607
170	0xbcd46906	-0.025928985
171	0x3d39a288	0.045321018
172	0x3bd7d3c5	0.006586524
173	0x3d00bde4	0.031431094
174	0x3cf81194	0.03028182
175	0xbc1ed82f	-0.009695097
176	0xbbcb350b	-0.0062013916
177	0xbd2ec053	-0.042663883
178	0xbd90af89	-0.07064731
179	0x3dcbe9da	0.09956713
180	0xbd16fd88	-0.03686288
181	0xbdabc27f	-0.083867066
182	0xb9073c00	-0.00012896955
183	0x3d832471	0.06403435
184	0x3d4bd8c5	0.049767274
185	0xbcb978c8	-0.0226406
186	0xbd58394f	-0.05278903
187	0x3ca38ada	0.01996367
188	0x3dba3c76	0.09093563
189	0xbd811474	-0.06302729
190	0xbc397f71	-0.011321888
191	0x3e0c779c	0.13717502
192	0xbd238b19	-0.039927576
193	0x3d667aa8	0.056269318
194	0xbe2ad156	-0.16681418
195	0xbd8679b0	-0.06566179
196	0x3ba79b69	0.005114962
197	0xbe00a5e7	-0.12563287
198	0x3d7a3121	0.06108201
199	0x3d822c8f	0.06356155
200	0x3d9ee8b3	0.077592276
201	0xbc7aec18	-0.015315078
202	0xbc365590	-0.011128798
203	0x3cef1954	0.029186882
204	0xbdf74620	-0.12073922
205	0x3d760309	0.06006149
206	0x3cefb0b2	0.02925906
207	0x3d8abe54	0.067745835
208	0xbcf1de3c	-0.029524915
209	0x3d62f826	0.055412434
210	0xbdd1315c	-0.10214493
211	0xbcf443c8	-0.029817477
212	0xbd85a212	-0.06525053
213	0xbd7c818b	-0.06164698
214	0x3d8b9e2d	0.06817279
215	0xbdbddc3d	-0.09270523
216	0xbc0073c0	-0.007840097
217	0x3d8fffb1	0.07031191
218	0xbd1daef2	-0.03849692
219	0xbda103b5	-0.07862035
220	0x3d81aea1	0.06332136
221	0xbbd627f0	-0.0065355226
222	0xbd573198	-0.05253753
223	0x3de09198	0.1096527
224	0xba8adaf0	-0.0010593813
225	0xbddc8743	-0.107679866
226	0x3c962384	0.018327482
227	0xbd86bae6	-0.06578617
228	0x3c440ab8	0.011965446
229	0x3dcc58d7	0.09977882
230	0xbc748664	-0.014924619
231	0xbe0b7b90	-0.13621354
232	0x3d2eaf1e	0.042647474
233	0x3d305fda	0.04306016
234	0x3e485aa7	0.19565831
235	0x3c090d8c	0.008365046
236	0x3e372c71	0.17888047
237	0x3dc746ac	0.097302765
238	0x3d12184b	0.0356677
239	0xbd39d4b0	-0.04536885
240	0x3c872873	0.01649878
241	0xbe0283a4	-0.1274553
242	0xbdceaaf4	-0.100912005
243	0xbb53ef84	-0.0032338807
244	0x3d217e20	0.039426923
245	0x3d281d05	0.0410433
246	0xbd017491	-0.031605307
247	0xbd0d9afe	-0.03457164
248	0x3c99922c	0.018746458
249	0xbdb8d743	-0.09025433
250	0x3dc9f453	0.09861054
251	0xbd4aa788	-0.049476177
252	0xbd149e8e	-0.036284022
253	0x39f24600	0.0004620999
254	0xbd7206f9	-0.05908868
255	0x3dd36047	0.10321098

embedding.bias f4 [64]
0	0xbd8e25f8	-0.06940836
1	0x3cb7c2ef	0.022431819
2	0xbdd5ea09	-0.10445029
3	0xbc58762d	-0.013211769
4	0xbd5d489a	-0.054024316
5	0xbdaf3c59	-0.08556432
6	0x3ba1f90f	0.00494302
7	0x3cb5110b	0.022102853
8	0xbcac8f8d	-0.021064544
9	0x3d8a1f85	0.06744293
10	0xbc6bdd80	-0.014396071
11	0xbd207039	-0.039169524
12	0x3d305bac	0.043056175
13	0x3cbf738a	0.023370523
14	0x3ca28355	0.019838015
15	0xbc4cf217	-0.012508891
16	0xbdb308b0	-0.087418914
17	0x3bdd2923	0.0067492886
18	0xbceba848	-0.028766766
19	0xbdce915c	-0.10086319
20	0x3d7a65aa	0.06113211
21	0xbcc2b234	-0.023766614
22	0xbd2814f6	-0.041035615
23	0x3d5dc477	0.05414244
24	0x3d77b428	0.060474545
25	0xbdcf757d	-0.10129831
26	0x3c29e30b	0.010369073
27	0xbd0ff72f	-0.035147842
28	0xbd92347d	-0.071389176
29	0xbd7523bc	-0.059848532
30	0xbcd11401	-0.025522234
31	0xbdb8fd02	-0.090326324
32	0xbd5c83ac	-0.05383651
33	0xbdbcb8a3	-0.09214904
34	0x3d9d7815	0.076889195
35	0x3c2c9f95	0.010536094
36	0xbdb5618c	-0.08856496
37	0xbdce3f16	-0.100706264
38	0xbdc8e377	-0.098090105
39	0x3d3357fc	0.04378508
40	0x3c06a45e	0.008217899
41	0xbdc9e7b0	-0.09858644
42	0xbcd50387	-0.026002659
43	0x3d896902	0.06709482
44	0xbdf0c461	-0.11756206
45	0x3da4d384	0.08048156
46	0xbc483ee0	-0.012222022
47	0x3bd21b32	0.0064119333
48	0x3cd3e7f3	0.025867438
49	0xbbb1038e	-0.005402035
50	0x3c3fbc91	0.011702673
51	0x3d12c939	0.035836432
52	0xbd1dfc03	-0.038570415
53	0xbca4f8e4	-0.020138212
54	0x3cfbc673	0.030734276
55	0xbb84a797	-0.0040482986
56	0x3d02e41e	0.03195583
57	0xbbdad0a7	-0.0066777053
58	0x3d899e9e	0.06719707
59	0xbd87ec6b	-0.0663689
60	0x3cdab388	0.026696935
61	0xbd586dc5	-0.05283906
62	0xbccc7281	-0.024956943
63	0xbdc79470	-0.09745109

convs.0.fc_full.weight f4 [128, 169]
0	0xbc983945	-0.018581996
1	0x3d16bdac	0.03680198
2	0xbd59b4b5	-0.05315085
3	0xbb87c967	-0.004143882
4	0x3d3e0caf	0.046398815
5	0xbd0f59f8	-0.03499791
6	0xbd086a8a	-0.03330473
7	0x3a67643b	0.0008826886
8	0x3d85f0e5	0.065400876
9	0x3cb29833	0.02180109
10	0xbd5dda97	-0.05416354
11	0xbd314348	-0.043277055
12	0xbdad579d	-0.084639765
13	0xbd4a3399	-0.049365614
14	0xbb18e2d0	-0.002332855
15	0x3d3fce76	0.046827756
16	0x3c456d2c	0.012049954
17	0xbc4ec55b	-0.012620295
18	0xbcc3e015	-0.023910562
19	0xbc6b5550	-0.014363602
20	0xbd73e671	-0.059545938
21	0x3d3a5905	0.045495052
22	0xbcade235	-0.021226028
23	0x3c136448	0.008996077
24	0xbd676e81	-0.05650187
25	0x3d35f639	0.04442427
26	0x3d1ed700	0.03877926
27	0xbc91357c	-0.017725699
28	0xbd3add2d	-0.045621086
29	0x3cdfc21e	0.027314242
30	0xbd66eb7f	-0.05637693
31	0xbcd0c4fe	-0.025484558
32	0x3ca7cb8f	0.020482806
33	0xbd2f32c0	-0.04277301
34	0x3d7ca59d	0.06168138
35	0x3d7e58da	0.062096454
36	0x3d40ee8a	0.04710249
37	0x3cb240ca	0.02175941
38	0xbc4a33f4	-0.012341488
39	0x3cabfa1a	0.020993281
40	0xbc820805	-0.015872965
41	0x3d5fc1b0	0.054628074
42	0xbce918f9	-0.02845429
43	0xbdac18bb	-0.084031545
44	0x3d982d03	0.0743046
45	0xbd8eb681	-0.069684036
46	0xbc32645d	-0.010888186
47	0x3d73ae03	0.059492122
48	0xbd213d38	-0.039365023
49	0xbd8d89dd	-0.06911061
50	0xbd81381a	-0.06309529
51	0xbc929928	-0.017895296
52	0x3cb94243	0.022614604
53	0x3d9a1724	0.07523945
54	0x3d9a6dff	0.07540511
55	0xbd1a84d6	-0.03772434
56	0x3d3f1330	0.046649158
57	0x3c63e079	0.013908499
58	0x3d38b3e9	0.04509345
59	0x3d7a28aa	0.061073937
60	0x3d98cfc5	0.07461504
61	0xbc93d96c	-0.01804801
62	0xbd224b64	-0.03962268
63	0xbd86062d	-0.06544147
64	0xbc39174f	-0.011297061
65	0x3cccc839	0.024997817
66	0xbcce7a56	-0.025204819
67	0x3d8b5626	0.06803541
68	0xbd3e8bdb	-0.046520095
69	0x3bc57b74	0.0060266796
70	0xbd90a310	-0.07062352
71	0xbd92d501	-0.071695335
72	0xbd9ef87a	-0.07762237
73	0x3d8af9c3	0.067859195
74	0xbc9c48d6	-0.0190777
75	0xbba6c26a	-0.005089094
76	0xbd39a14c	-0.04531984
77	0x3d63d39a	0.05562172
78	0xbd7ddcff	-0.061978336
79	0x3d0d76ea	0.034537233
80	0x3d56ad8f	0.052411612
81	0x3d91a3ca	0.071113184
82	0x3d5e2cee	0.054242067
83	0x3d0cac8a	0.034344234
84	0xbcab6c69	-0.020925717
85	0xbd70b1d0	-0.058763325
86	0x3cfd4173	0.030914998
87	0x3d9820fa	0.07428165
88	0x3c6c1a53	0.014410573
89	0xbd95a9db	-0.07307788
90	0xbc9ac20d	-0.018891359
91	0xbd77847a	-0.060429074
92	0x3ba79ccf	0.0051151286
93	0x3d0a49cf	0.033761796
94	0xbcac2db6	-0.02101789
95	0xbd35f15b	-0.044419628
96	0x3d794f59	0.060866687
97	0x3bc66350	0.0060543194
98	0xbbbba003	-0.005725862
99	0xbdb3b52d	-0.08774791
100	0xbd6a922b	-0.057268303
101	0xbd018697	-0.031622496
102	0x3d47c2ee	0.048769884
103	0xbd94b07b	-0.072602235
104	0xbd3a88b4	-0.045540527
105	0x3c8ee706	0.017444145
106	0xbdb6f94a	-0.08934267
107	0xbcf2beff	-0.02963209
108	0x3d28d774	0.041221097
109	0x3cf76afd	0.030202383
110	0xbd8d3ae2	-0.06895997
111	0x3d60d5b8	0.054891318
112	0xbd06bb97	-0.032893743
113	0xbc9184c4	-0.017763503
114	0x3ca6db5e	0.020368274
115	0x3d9590bb	0.07302996
116	0xbcf82628	-0.030291632
117	0xbdac8463	-0.08423688
118	0xbc8e35db	-0.017359665
119	0x3d9cd161	0.07657123
120	0xbcb0c5d9	-0.021578716
121	0x3d91f0e0	0.071260214
122	0x3d889ff3	0.06671133
123	0xbd9817ab	-0.07426389
124	0xbd8018b7	-0.06254714
125	0xbd3b679b	-0.045753103
126	0xbc51cc3a	-0.012805039
127	0x3bd4642f	0.0064816694
128	0x3d8ccc27	0.068748765
129	0x3cb68098	0.022278115
130	0x3d675216	0.056474768
131	0x3d68bf54	0.05682309
132	0xbce5a5f4	-0.028033234
133	0x3ccf6045	0.02531446
134	0x3d6fbff8	0.058532685
135	0x3d52a66b	0.05142824
136	0xbd814176	-0.06311314
137	0xbcdd3b99	-0.027005957
138	0xbb7ff675	-0.0039056812
139	0x3c5c7fb0	0.013458177
140	0x3c789871	0.015173064
141	0x3da4c871	0.08046044
142	0xbb867bd5	-0.0041041174
143	0x3ce2a853	0.027668154
144	0xbd47d2a5	-0.04878487
145	0x3d261d35	0.040555198
146	0xbd1a3b18	-0.037654012
147	0x3cebe3de	0.028795179
148	0x3d579904	0.05263616
149	0xbc804e9a	-0.01566248
150	0xbb653f5e	-0.0034980397
151	0x3c611007	0.013736731
152	0x3cf127ae	0.029437866
153	0xbd60f3e0	-0.054920077
154	0xbd720640	-0.05908799
155	0x3cd45594	0.025919713
156	0x3cdd5230	0.02701673
157	0xbd8f4b6b	-0.06996807
158	0xbd37ddf6	-0.044889413
159	0x3cfbb761	0.03072709
160	0x3ce49f7a	0.027908076
161	0xbd86fc9c	-0.0659115
162	0xbc346214	-0.011009712
163	0xbd2a5683	-0.04158641
164	0xbc899f65	-0.016799638
165	0x3d4774cc	0.04869537
166	0xbc4e9cd4	-0.012610633
167	0x3c069955	0.008215268
168	0xbd889b11	-0.066702016
169	0xbd3d2ba7	-0.04618421
170	0xbd15c437	-0.03656408
171	0x3d6812f4	0.0566587
172	0x3b55503c	0.0032549044
173	0xbc031d3c	-0.0080025755
174	0x3ce8dc04	0.028425224
175	0x3ca428d2	0.020038996
176	0x3d000cf4	0.031262353
177	0xbd784a76	-0.060617886
178	0xbca57474	-0.02019713
179	0xbb46f5d3	-0.0030358925
180	0xbb19c4ae	-0.0023463177
181	0x3d15e289	0.036592994
182	0xbd8460eb	-0.06463798
183	0x3d39b2a5	0.045336384
184	0x3d8370dd	0.06418011
185	0xbd7434a2	-0.059620507
186	0xbd239ea0	-0.0399462
187	0xbc46a4d0	-0.012124255
188	0xbd0c8bad	-0.034312893
189	0x3b45f689	0.003020676
190	0xbd8ee52d	-0.069773056
191	0x3cceed9d	0.025259787
192	0x3d8cd3d8	0.068763435
193	0xbd5c4891	-0.053780142
194	0xbd941af6	-0.07231705
195	0xbcd44541	-0.02591193
196	0xbc4dc3f8	-0.01255893
197	0x3d94d181	0.07266522
198	0xbd88f48f	-0.06687271
199	0xbdb1f4f3	-0.086892985
200	0xbd265c6f	-0.040615495
201	0x3c8b8473	0.01703093
202	0xbd0755e0	-0.03304088
203	0xbca81218	-0.02051644
204	0xbd4565ac	-0.048192665
205	0xbd24de7b	-0.040251236
206	0x3d655229	0.055986557
207	0x3d55e707	0.052222278
208	0xbd9dadaf	-0.07699143
209	0xbd7fd92d	-0.062462974
210	0xbd721445	-0.05910136
211	0x3d48e55a	0.04904685
212	0x3d93d884	0.072190315
213	0x3d462804	0.048378006
214	0xbdb6aa5f	-0.089192145
215	0x3bf38745	0.007431897
216	0x3d4246aa	0.04743067
217	0x3d7d6c84	0.061871067
218	0xbd0fadf1	-0.035077993
219	0xbdb19f7f	-0.086729996
220	0xbd587627	-0.052847054
221	0xbc2f52d1	-0.010700897
222	0xbd6ed0a0	-0.05830443
223	0xbd47f509	-0.048817668
224	0x3da29eb4	0.079404265
225	0x3d08e7a1	0.033424024
226	0x3cb7cd4d	0.022436762
227	0xbd0ccdea	-0.034376062
228	0x3da1d9e7	0.0790289
229	0xbd131892	-0.035912104
230	0x3d841a07	0.06450277
231	0xbd1575e4	-0.036489382
232	0x3da0c6b6	0.07850401
233	0x3d7c93a1	0.061664227
234	0xbd1262a0	-0.035738587
235	0xbc406d35	-0.011744787
236	0xbd0b60f0	-0.034027994
237	0xbd0f4619	-0.03497896
238	0x3b8234ab	0.0039735637
239	0x3d479018	0.048721403
240	0x3d84430e	0.06458102
241	0x3c2e542b	0.010640184
242	0xbc46c36d	-0.012131554
243	0x3d0c0ad3	0.03419001
244	0xbce9cc4f	-0.028539805
245	0xbd186547	-0.03720596
246	0xbd41e9fe	-0.047342293
247	0xbd4cbd5f	-0.049985286
248	0xbd0c707f	-0.034286972
249	0x3d20a14a	0.039216317
250	0x3d301256	0.042986237
251	0x3cf94d1e	0.03043228
252	0x3d43c2ec	0.047793314
253	0xbd1af89d	-0.037834752
254	0xbcf69c89	-0.030103939
255	0x3d1ef61a	0.03880892

convs.0.fc_full.bias f4 [128]
0	0x3d917269	0.071019
1	0x3d8e911a	0.0696127
2	0x3d67c0a6	0.05658021
3	0xbd7d7360	-0.06187761
4	0xbd9cfce5	-0.07665423
5	0x3c73a768	0.014871456
6	0x3d9d4539	0.07679219
7	0xbc861c3d	-0.016370887
8	0xbd569a72	-0.052393384
9	0xbad12316	-0.0015955891
10	0x3d275574	0.04085298
11	0xbd6e52e1	-0.05818451
12	0xbd43679d	-0.047706235
13	0x3d24cb1b	0.04023276
14	0xbb94c6fd	-0.004540323
15	0x3cf72411	0.030168565
16	0x3d8856ae	0.06657158
17	0x3c1f3c3c	0.009718951
18	0x3b09378a	0.0020937645
19	0xbd7c8e2a	-0.061659016
20	0xbd254819	-0.04035196
21	0xbd4718ba	-0.048607565
22	0xbd293066	-0.041305922
23	0x3ceb930d	0.028756643
24	0x3c2b86e3	0.010469171
25	0x3cd98b1b	0.026555588
26	0x3d3f9594	0.04677351
27	0x3c132a9d	0.008982328
28	0xbd974235	-0.07385675
29	0xbbb58c38	-0.005540397
30	0xbc138842	-0.009004654
31	0xbd2a6875	-0.041603524
32	0x3cf698be	0.03010213
33	0x3d12c37e	0.035830967
34	0x3cd7f28c	0.026360773
35	0x3cde7565	0.027155587
36	0xbceaa8af	-0.028644888
37	0x3d53f46f	0.051746782
38	0xbca3da03	-0.020001417
39	0x3d719930	0.05898398
40	0x3d7e5e81	0.062101845
41	0xbd4d5720	-0.050131917
42	0x3cb9fb8f	0.02270296
43	0x3d9b26fd	0.07575796
44	0xbc380995	-0.011232753
45	0x3d2be0b0	0.041962326
46	0xbd821b7f	-0.06352901
47	0xbd35e503	-0.044407856
48	0xbcf79cfb	-0.030226221
49	0x3d988d77	0.07448857
50	0xbd8a219a	-0.0674469
51	0xbc301d11	-0.0107491175
52	0x3d7bcefd	0.061476696
53	0x3be6e10f	0.007045872
54	0xbd894cc8	-0.06704098
55	0x3d0492f7	0.03236672
56	0xbc417fef	-0.011810287
57	0x3d83d830	0.06437719
58	0x3d36407d	0.044495095
59	0x3beb82df	0.007187232
60	0x3d260f59	0.04054198
61	0xbd44268f	-0.047888335
62	0x3c763dac	0.015029352
63	0xbd5fc4d1	-0.054631058
64	0x39fabcb8	0.00047824322
65	0x3d04e442	0.032444246
66	0xbd773b39	-0.060359214
67	0x3d257e09	0.0404034
68	0xbcc8a5fd	-0.024493212
69	0x3ca5ac1a	0.020223666
70	0xbd9a111e	-0.07522796
71	0x3cf2dcde	0.029646333
72	0xbc1e2836	-0.009653142
73	0x3c30d5b9	0.010793143
74	0xbd9d275f	-0.07673525
75	0xbd107430	-0.035267055
76	0x3c758c30	0.014987037
77	0xbd2dc371	-0.042422716
78	0xbd0bda39	-0.03414366
79	0x3cec80b0	0.028869957
80	0xbd69556e	-0.056966238
81	0x3c504300	0.012711287
82	0xbd98d0c6	-0.074616954
83	0xbba59678	-0.0050533377
84	0x3c0255cb	0.007955025
85	0xbd87ac88	-0.066247046
86	0x3d9142fe	0.07092856
87	0x3d8b1003	0.06790163
88	0x3c0b2eb5	0.008495023
89	0xbbddf970	-0.00677412
90	0x3b8b1dad	0.004245481
91	0x3d08d881	0.0334096
92	0xbcf68d8e	-0.030096795
93	0x3d81ba16	0.06334321
94	0x3b048390	0.002022002
95	0xbd5b01c3	-0.053468477
96	0xbbfda989	-0.0077411574
97	0xbb787e22	-0.0037916978
98	0x3b2b708a	0.0026159608
99	0xbc88dd17	-0.016706986
100	0xbd2b2891	-0.041786734
101	0xbcf59701	-0.02997923
102	0x3d3bb14e	0.045823388
103	0x3c702ebe	0.014659582
104	0x3cfd525f	0.030923067
105	0x3d84f427	0.06491881
106	0xbb3692f7	-0.0027858594
107	0x3d884d41	0.0665536
108	0xbd93f7df	-0.07225012
109	0x3c8101d7	0.015747948
110	0xbd1b93cc	-0.037982747
111	0xbd8ad26d	-0.06778417
112	0xbcba2c00	-0.022726059
113	0x3d00c995	0.031442244
114	0xbd961153	-0.07327523
115	0xbd9217e1	-0.07133461
116	0x3d92b603	0.07163622
117	0xbd1ce696	-0.03830584
118	0x3cde4ba7	0.027135683
119	0x3ce0fd62	0.027464572
120	0x3d1c5e39	0.038175795
121	0x3d8d0218	0.06885165
122	0x3d955dfe	0.07293318
123	0xbac72474	-0.0015193359
124	0xbc9b0297	-0.018922133
125	0xbd814b73	-0.06313219
126	0x3d832fc4	0.06405595
127	0xbd224b22	-0.039622433

convs.0.bn1.weight f4 [128]
0	0x3f7ecf0d	0.99534684
1	0x3f7f3472	0.996894
2	0x3f7faf77	0.99877113
3	0x3f8074a2	1.0035594
4	0x3f7fb2f7	0.99882454
5	0x3f80e26e	1.0069101
6	0x3f80701d	1.0034214
7	0x3f807350	1.003519
8	0x3f7fe0c3	0.99952334
9	0x3f804163	1.0019954
10	0x3f7ea9df	0.9947795
11	0x3f80d7fe	1.0065916
12	0x3f806bce	1.0032899
13	0x3f7f941b	0.99835366
14	0x3f804c08	1.0023203
15	0x3f817c74	1.0116105
16	0x3f7f721b	0.99783486
17	0x3f8122a6	1.0088699
18	0x3f80b29f	1.0054511
19	0x3f815f2b	1.0107168
20	0x3f80bcc7	1.005761
21	0x3f7f5f75	0.9975503
22	0x3f80cfba	1.0063393
23	0x3f7fcc0f	0.99920744
24	0x3f80ecb7	1.007224
25	0x3f801ac3	1.0008167
26	0x3f803376	1.0015705
27	0x3f7f56c4	0.9974177
28	0x3f7f2abc	0.9967458
29	0x3f80229d	1.0010563
30	0x3f80254e	1.0011384
31	0x3f7ff660	0.99985313
32	0x3f7f5e71	0.9975348
33	0x3f7fffc8	0.99999666
34	0x3f7e41cf	0.99319166
35	0x3f809f4b	1.0048612
36	0x3f8026a5	1.0011793
37	0x3f815a20	1.0105629
38	0x3f7fb41f	0.9988422
39	0x3f80fc9b	1.0077089
40	0x3f801d08	1.000886
41	0x3f8548e1	1.0412866
42	0x3f8088b2	1.0041716
43	0x3f7f7698	0.99790335
44	0x3f810c79	1.0081931
45	0x3f809ed8	1.0048475
46	0x3f80808d	1.003923
47	0x3f80c050	1.0058689
48	0x3f7eef65	0.9958404
49	0x3f7e5a3e	0.9935645
50	0x3f7f2427	0.9966454
51	0x3f7f3c87	0.9970173
52	0x3f7ff75d	0.9998682
53	0x3f832578	1.024581
54	0x3f7f6ded	0.9977711
55	0x3f807f26	1.0038803
56	0x3f8044bf	1.002098
57	0x3f80138c	1.0005965
58	0x3f7f15fd	0.99642926
59	0x3f7f3f1c	0.9970567
60	0x3f809c88	1.004777
61	0x3f7e7ec7	0.99412197
62	0x3f817bf2	1.011595
63	0x3f807a3d	1.0037304
64	0x3f8100bf	1.0078353
65	0x3f80062a	1.0001881
66	0x3f7fc524	0.9991019
67	0x3f7f3b3c	0.9969976
68	0x3f80ce47	1.0062951
69	0x3f800fc1	1.0004808
70	0x3f804560	1.0021172
71	0x3f7f519d	0.99733907
72	0x3f7fa470	0.99860287
73	0x3f7fa4dd	0.99860936
74	0x3f806cdf	1.0033225
75	0x3f831c4e	1.0243013
76	0x3f7fb192	0.99880326
77	0x3f7feb7a	0.99968684
78	0x3f801474	1.0006242
79	0x3f7ee8b6	0.9957384
80	0x3f7ec4eb	0.9951922
81	0x3f7fb1da	0.99880755
82	0x3f82dc2c	1.0223441
83	0x3f846be3	1.0345424
84	0x3f7d68e1	0.9898816
85	0x3f803c6e	1.0018442
86	0x3f7dab8b	0.9908988
87	0x3f8094e8	1.0045443
88	0x3f815dcf	1.0106753
89	0x3f808073	1.00392
90	0x3f7e0128	0.99220514
91	0x3f807d8b	1.0038313
92	0x3f8060bd	1.0029522
93	0x3f80df4a	1.0068142
94	0x3f801712	1.000704
95	0x3f80858b	1.0040754
96	0x3f806c15	1.0032984
97	0x3f80d658	1.0065413
98	0x3f81e296	1.0147274
99	0x3f7f23dd	0.996641
100	0x3f808707	1.0041207
101	0x3f7e745f	0.9939632
102	0x3f7f2682	0.99668133
103	0x3f8088c1	1.0041734
104	0x3f80188c	1.0007491
105	0x3f81e1ac	1.0146995
106	0x3f807d50	1.0038242
107	0x3f80766b	1.0036138
108	0x3f8067aa	1.0031636
109	0x3f7d1484	0.9885943
110	0x3f80b5ad	1.0055443
111	0x3f80922f	1.0044612
112	0x3f7f1b63	0.99651164
113	0x3f803d40	1.0018692
114	0x3f8132e0	1.0093651
115	0x3f83b0f5	1.0288378
116	0x3f7f2ae6	0.9967483
117	0x3f8c4f6c	1.0961738
118	0x3f807a91	1.0037404
119	0x3f806cef	1.0033244
120	0x3f7f92df	0.9983348
121	0x3f804084	1.0019689
122	0x3f80f791	1.0075551
123	0x3f8134e2	1.0094264
124	0x3f80c37f	1.0059661
125	0x3f809747	1.0046166
126	0x3f809d16	1.0047939
127	0x3f7f9a9c	0.9984529

convs.0.bn1.bias f4 [128]
0	0xbbb1e3a6	-0.005428749
1	0x39f2100c	0.00046169793
2	0xbc3a0b40	-0.011355221
3	0xb97dfb51	-0.00024221583
4	0x39d5ad7a	0.00040755776
5	0x3bd80e0d	0.006593472
6	0xba8a8f47	-0.0010571264
7	0xba5076c3	-0.0007952267
8	0x3a531825	0.0008052609
9	0x3b593352	0.0033142162
10	0x3b0995da	0.002099386
11	0xbbc4f8b3	-0.0060110926
12	0xbc5a81e8	-0.013336636
13	0x3ba1286e	0.0049181497
14	0xbb62e45a	-0.0034620971
15	0xbc0c7c14	-0.008574504
16	0xbb33ad7e	-0.0027416642
17	0x37b66522	2.1743184e-05
18	0xbc07447f	-0.008256077
19	0x3c1652be	0.009175001
20	0xbb01df55	-0.0019816954
21	0x39311d5e	0.00016890976
22	0x3bf11a00	0.007357836
23	0x3b759feb	0.0037479352
24	0xbc1aff59	-0.009460294
25	0x38a25cda	7.742057e-05
26	0x39282842	0.00016036726
27	0x3bff58d0	0.0077925697
28	0x3b392465	0.0028250453
29	0xbb25efcd	-0.0025319934
30	0xbae60fde	-0.0017552336
31	0xba62f9b2	-0.00086584233
32	0xbb01c21e	-0.001979954
33	0xb9edac8a	-0.00045332714
34	0xbbfabc1c	-0.007651819
35	0x3b1e3a0f	0.0024143492
36	0xbab02d4f	-0.0013441237
37	0xbba031d0	-0.0048887506
38	0x3a8a0aef	0.0010531823
39	0xbbc7c306	-0.0060962467
40	0x3b4235f9	0.002963422
41	0xbbb07188	-0.0053846277
42	0x3b7faf62	0.0039014448
43	0xbbf10b65	-0.0073560947
44	0xbc5f6e27	-0.013637102
45	0xba01698e	-0.00049366883
46	0xbb8676c6	-0.0041035144
47	0xbb093a75	-0.0020939384
48	0x3b5946a8	0.0033153687
49	0xba656740	-0.0008751042
50	0xbbee73d1	-0.00727699
51	0xbc295862	-0.0103360135
52	0x3bd1f041	0.0064068143
53	0x3d393ffc	0.045227036
54	0xbb76ef91	-0.0037679414
55	0x3a264c23	0.0006343743
56	0x3b4abaf9	0.0030934198
57	0x3b01edd8	0.0019825604
58	0xbc6f08d4	-0.014589507
59	0xbafb6862	-0.0019180889
60	0x3b3e5971	0.002904501
61	0x39b883dd	0.0003519346
62	0xbc2efaf9	-0.010679954
63	0x3a38ee74	0.0007054575
64	0xbc24d274	-0.010059942
65	0xba80cfc4	-0.0009827544
66	0xbb303c1c	-0.0026891297
67	0x3ad055e4	0.0015894738
68	0xbab370f9	-0.0013690285
69	0xb99fb44b	-0.00030461172
70	0xb8948a92	-7.083001e-05
71	0x3b121c33	0.002229464
72	0x3a518c78	0.0007993649
73	0x3abc3ad1	0.001436079
74	0xba9668a7	-0.0011475281
75	0xbc2ed6d7	-0.010671339
76	0xbb180a3d	-0.0023199462
77	0xb98b97a6	-0.00026625133
78	0xbaccbb8f	-0.0015619862
79	0x3979d8c2	0.00023827239
80	0x3b05d2dd	0.0020419874
81	0x3b12cc1c	0.002239949
82	0xbc3c5d77	-0.011496893
83	0xbc872766	-0.016498279
84	0x3b4d6dc2	0.0031345938
85	0xbc14e23c	-0.009087142
86	0x3bd2b42f	0.006430171
87	0x39195d62	0.00014626005
88	0xbb38d6bb	-0.0028204161
89	0xbb3abf7f	-0.0028495488
90	0x3b8bda15	0.0042679408
91	0xbaad2dc6	-0.0013212494
92	0xba2df3aa	-0.0006635735
93	0xbb9388c2	-0.004502387
94	0x383adcef	4.4551616e-05
95	0xbbb6a411	-0.0055737575
96	0xb9f67b2d	-0.0004701255
97	0xba1d924e	-0.0006010876
98	0xbc3107c3	-0.010805073
99	0x3b758e9c	0.0037469035
100	0xbac660b6	-0.0015135023
101	0x3b8810bb	0.004152385
102	0x3aff9087	0.0019498029
103	0x391c26c6	0.00014891764
104	0xbb156b92	-0.0022799713
105	0xbc29f0e7	-0.010372377
106	0xb88438c4	-6.304824e-05
107	0xbb31abf0	-0.002711054
108	0xbb8fe681	-0.004391492
109	0x3c0fb46a	0.008771041
110	0xbb7446a4	-0.003727355
111	0xbae6ef43	-0.0017618913
112	0x3b78edae	0.0037983465
113	0xbba23b40	-0.004950911
114	0xbb86a7a6	-0.0041093407
115	0xbc4121f7	-0.011787883
116	0x3b106bef	0.002203699
117	0xbd4aa610	-0.049474776
118	0xbb0dda99	-0.0021645187
119	0xbaa54f10	-0.0012612063
120	0x3a1fce00	0.0006096065
121	0xb9c43dc0	-0.0003743004
122	0xbbd2c861	-0.0064325784
123	0xbb9377d2	-0.0045003677
124	0xbc2dbd8d	-0.010604274
125	0xbb1a402a	-0.002353678
126	0x3962a097	0.00021612864
127	0x39b555a3	0.00034586815

convs.0.bn1.running_mean f4 [128]
0	0x3de1aa4e	0.11018811
1	0xbd0407c2	-0.03223396
2	0x3d614769	0.054999743
3	0xbe793969	-0.24338306
4	0xbe63cbb4	-0.22245675
5	0x3d740a5c	0.059580192
6	0x3e8710e3	0.2638007
7	0xbc8f01c7	-0.017456902
8	0x3db6d9cb	0.089282595
9	0xbd5f055b	-0.054448467
10	0xbd235656	-0.03987726
11	0xbd04de1b	-0.03243838
12	0xbcf13067	-0.029442025
13	0xbbc9f94e	-0.0061637526
14	0x3d84fe39	0.064938016
15	0xbd4d9921	-0.050194863
16	0x3e028c48	0.12748826
17	0xbe1ae4db	-0.15126364
18	0x3e14d6f3	0.14535122
19	0xbc808103	-0.015686518
20	0x3cf6ab85	0.030111084
21	0xbd52604f	-0.05136138
22	0xbdc05bbd	-0.09392498
23	0xbd513118	-0.05107221
24	0x3c918e9d	0.017768199
25	0x3df88f99	0.12136764
26	0x3c8d62aa	0.01725896
27	0x3d8114b0	0.06302774
28	0x3c794daa	0.01521627
29	0x3d82e9a4	0.0639222
30	0xbcb0ff0f	-0.021605996
31	0xbdcc7c61	-0.09984661
32	0x3b804476	0.003914411
33	0x3ddd1791	0.107955106
34	0x3db0b1c2	0.086276546
35	0x3c16e4a2	0.009209784
36	0x3cac0d07	0.021002306
37	0x3e0ef055	0.13958867
38	0x3c00c316	0.007859012
39	0x3ada0dcb	0.0016636191
40	0x3d8ce1b1	0.06878985
41	0x3cf05be0	0.029340684
42	0x3d29ebf7	0.0414848
43	0x3b217fea	0.0024642893
44	0xbd227ec3	-0.03967167
45	0x3d85aa00	0.065265656
46	0xbd3d10cc	-0.046158597
47	0x3cc8c36e	0.02450725
48	0xbe02fb71	-0.1279123
49	0xbd7008a7	-0.058602
50	0xbcf2c3fb	-0.029634466
51	0xbd1bd077	-0.038040604
52	0x3b044c5f	0.0020187122
53	0x3d822553	0.06354775
54	0xbdf68613	-0.120372914
55	0x3bba09ce	0.0056774383
56	0x3c5931d6	0.013256511
57	0x3dfd808c	0.12378034
58	0xbceba3de	-0.028764661
59	0xbd52bafb	-0.05144785
60	0x3dc29bdf	0.09502386
61	0xbe623cda	-0.22093526
62	0xbd2c00c0	-0.041992903
63	0x3d83ab99	0.06429214
64	0xbd9c548c	-0.076333135
65	0xbe0721ba	-0.1319646
66	0xbe01a7ac	-0.12661618
67	0xbd1cf4a9	-0.038319264
68	0x3d919ebe	0.07110356
69	0xbcd18187	-0.025574459
70	0xbd08bff9	-0.033386204
71	0xbdf8afec	-0.121429294
72	0x3d1fed44	0.039044634
73	0xbd85759d	-0.065165736
74	0xbe023ec4	-0.12719256
75	0x3d707fe7	0.058715727
76	0x3a47b0f0	0.00076176133
77	0xbd87a135	-0.06622545
78	0x3d71369b	0.058889966
79	0xbdb01dbf	-0.085994236
80	0x3db011c9	0.08597142
81	0xbe3bffbc	-0.18359274
82	0xbce61ca0	-0.028089821
83	0x3d26f8eb	0.04076473
84	0x3dc6e36e	0.097113475
85	0xbe3f6c9b	-0.18693773
86	0x3e856b3a	0.2605837
87	0x3da1d432	0.07901801
88	0xbc36d54c	-0.011159252
89	0xbd820b58	-0.0634982
90	0xbd393939	-0.045220587
91	0x3d5c5f31	0.05380172
92	0x3e05ff65	0.13085707
93	0x3d80203b	0.062561475
94	0x3c8791fa	0.0165491
95	0x3d3d31cc	0.046190068
96	0xbe05cc2f	-0.13066171
97	0x3de98dbe	0.11403988
98	0x3de26af6	0.110555574
99	0x3c0b8908	0.0085165575
100	0xbdb29aa6	-0.08720903
101	0x3d44dcf6	0.048062287
102	0x3c9b3eb1	0.018950792
103	0xbc85af70	-0.016319007
104	0x3d2355b3	0.03987665
105	0x3ea0c4bb	0.31400093
106	0xbccaad24	-0.024740763
107	0x3d273560	0.040822387
108	0xbe21d639	-0.15804376
109	0x3e2eb9c8	0.17063057
110	0xbd1980dd	-0.03747641
111	0x3d629348	0.05531624
112	0x391fecbe	0.00015251615
113	0xbd126d93	-0.03574903
114	0xbd65dcce	-0.05611878
115	0xbd9b8478	-0.07593626
116	0xbd367237	-0.044542518
117	0xbdcdbe0a	-0.10046013
118	0xbe0465cc	-0.12929457
119	0x3d252015	0.0403138
120	0x3da45d75	0.08025638
121	0x3ce0f419	0.027460145
122	0x3d6e52b3	0.058184337
123	0xbd8fad44	-0.0701547
124	0x3e3afb93	0.1826003
125	0xbdd0f593	-0.102030896
126	0x3dc07389	0.093970366
127	0xbdbe2fd2	-0.09286465

convs.0.bn1.running_var f4 [128]
0	0x3cb529c5	0.022114644
1	0x3cb79a0a	0.022412319
2	0x3dd92fa1	0.106047876
3	0x3c8ee39f	0.017442523
4	0x3cb9e258	0.022690937
5	0x3cbb8342	0.022889737
6	0x3cba9462	0.022775833
7	0x3c9feec6	0.019523036
8	0x3c579f5e	0.013160555
9	0x3c810258	0.015748188
10	0x3c4f9efe	0.012672184
11	0x3d7d30f0	0.06181425
12	0x3cb62cde	0.022238191
13	0x3ce96433	0.028490162
14	0x3cb385f9	0.02191447
15	0x3d003574	0.031300977
16	0x3c9e4819	0.019321488
17	0x3d25f032	0.04051227
18	0x3c231b85	0.009955292
19	0x3e110c5e	0.14164874
20	0x3c7a7c15	0.0152883725
21	0x3da0c62f	0.078503005
22	0x3c7c3b8a	0.015395055
23	0x3ca59b61	0.020215692
24	0x3d9391ef	0.07205569
25	0x3c5a14f5	0.013310661
26	0x3d289f1f	0.041167375
27	0x3c542c3c	0.012949999
28	0x3c8cdd93	0.017195499
29	0x3c6b0302	0.014343979
30	0x3c97fe4a	0.018553872
31	0x3d1de01a	0.038543798
32	0x3c8e1817	0.017345471
33	0x3cda4c24	0.026647635
34	0x3cebc82d	0.028781975
35	0x3ca5f531	0.020258518
36	0x3c33fce2	0.010985585
37	0x3cee4e89	0.029090183
38	0x3cc32abf	0.023824094
39	0x3cdba864	0.026813693
40	0x3cc83c26	0.024442744
41	0x3cefb7cf	0.029262451
42	0x3ccaffa2	0.024780098
43	0x3c9cdccd	0.019148255
44	0x3d256f76	0.0403895
45	0x3d041864	0.032249823
46	0x3c34296e	0.010996206
47	0x3c9d748d	0.019220615
48	0x3ca335fe	0.019923206
49	0x3d748c43	0.059704076
50	0x3ce667a4	0.028125592
51	0x3d41f82e	0.047355823
52	0x3ccb6044	0.024826176
53	0x3ebb26f0	0.36553144
54	0x3c821bbe	0.01588237
55	0x3c6d0584	0.014466647
56	0x3d1b8177	0.037965264
57	0x3cc81135	0.024422267
58	0x3c8c5ee6	0.017135095
59	0x3c5112e4	0.0127608515
60	0x3dbba797	0.091628246
61	0x3cddacb8	0.027059898
62	0x3d8331c0	0.064059734
63	0x3c80d049	0.015724318
64	0x3d60c0ec	0.054871485
65	0x3d44939e	0.04799234
66	0x3de9a3c4	0.11408189
67	0x3cdcf68f	0.026973037
68	0x3ccad9a3	0.02476198
69	0x3d87d927	0.066332154
70	0x3d732fac	0.059371635
71	0x3d0bb5d4	0.03410895
72	0x3c8ae9f9	0.01695727
73	0x3ccf88ed	0.025333846
74	0x3cca0673	0.024661278
75	0x3df1a024	0.117981225
76	0x3d79e807	0.061012294
77	0x3d3f4de2	0.046705134
78	0x3d00f0db	0.031479698
79	0x3d206e6a	0.0391678
80	0x3cb8cc61	0.022558393
81	0x3dc66ac5	0.096883334
82	0x3c8c6d73	0.017142033
83	0x3e04ee56	0.12981543
84	0x3cdd7915	0.027035275
85	0x3e09c31d	0.13453336
86	0x3d92c833	0.07167091
87	0x3d1e9c2b	0.038723152
88	0x3df90b90	0.121604085
89	0x3c54b61e	0.012982873
90	0x3d17f798	0.03710136
91	0x3ce6db04	0.028180607
92	0x3d1060c5	0.035248537
93	0x3c858d0d	0.01630261
94	0x3c7bc6ff	0.015367269
95	0x3dad61f6	0.0846595
96	0x3d0f9213	0.035051417
97	0x3d196e92	0.037458964
98	0x3d879d83	0.0662184
99	0x3ccaf13c	0.024773233
100	0x3c89d54d	0.016825343
101	0x3d20d722	0.039267667
102	0x3ccccc2c	0.0249997
103	0x3d9f2a5a	0.0777175
104	0x3cd97b24	0.026547976
105	0x3d83732d	0.064184524
106	0x3d9e2101	0.07721139
107	0x3d0b7b15	0.034052927
108	0x3d561708	0.052268058
109	0x3d50314e	0.05082827
110	0x3cedf50f	0.029047517
111	0x3d2a3ae7	0.04156008
112	0x3d09fcb2	0.033688255
113	0x3d84b1b2	0.06479205
114	0x3d99f7a2	0.07517935
115	0x3dd69e74	0.10479441
116	0x3d56e468	0.05246392
117	0x3e8a7c51	0.2704797
118	0x3d297a4b	0.041376393
119	0x3c4a729b	0.012356426
120	0x3d31588b	0.04329733
121	0x3d0b2a80	0.033976078
122	0x3d810895	0.06300465
123	0x3c929789	0.017894523
124	0x3e2ea643	0.17055611
125	0x3d2a03b7	0.04150745
126	0x3e04da75	0.1297396
127	0x3cb7232f	0.022355644

convs.0.bn2.weight f4 [64]
0	0x3f80b2b0	1.0054531
1	0x3f7893d3	0.9710056
2	0x3f706df3	0.9391777
3	0x3f7ac5a3	0.9795782
4	0x3f80af6a	1.0053532
5	0x3f6ca337	0.92436546
6	0x3f80d361	1.0064508
7	0x3f79e2fe	0.9761199
8	0x3f7ee348	0.99565554
9	0x3f80233e	1.0010755
10	0x3f7e6af8	0.9938197
11	0x3f8c5ba0	1.0965462
12	0x3f8691d7	1.0513257
13	0x3f7750a8	0.96607447
14	0x3f73cbc6	0.9523281
15	0x3f82255a	1.0167649
16	0x3f7337a2	0.95006764
17	0x3f7d827b	0.9902722
18	0x3f88acee	1.0677774
19	0x3f8b3fba	1.0878823
20	0x3f7dbd3c	0.99116874
21	0x3f5e5ee0	0.8686352
22	0x3f70232f	0.93803686
23	0x3f8367d9	1.0266067
24	0x3f81aed9	1.0131484
25	0x3f804edf	1.002407
26	0x3f795d7f	0.9740829
27	0x3f7c8603	0.98641986
28	0x3f788024	0.9707053
29	0x3f8226f8	1.0168142
30	0x3f81244c	1.0089202
31	0x3f790421	0.97271925
32	0x3f7b0e1b	0.980684
33	0x3f7af7e5	0.9803451
34	0x3f82d159	1.0220138
35	0x3f75aae9	0.95963913
36	0x3f826e20	1.0189857
37	0x3f79a02c	0.9751003
38	0x3f7742a0	0.96586037
39	0x3f83fd41	1.0311662
40	0x3f74a4e6	0.95564115
41	0x3f824e78	1.0180197
42	0x3f8275ac	1.0192161
43	0x3f812e4e	1.0092256
44	0x3f7f3cf2	0.9970237
45	0x3f75c863	0.9600889
46	0x3f833044	1.0249104
47	0x3f83893e	1.0276258
48	0x3f750541	0.9571114
49	0x3f74ab0e	0.9557351
50	0x3f82087e	1.0158842
51	0x3f7e8d60	0.9943447
52	0x3f7d1358	0.9885764
53	0x3fa5e484	1.2960362
54	0x3f7c850a	0.986405
55	0x3f840fe0	1.0317345
56	0x3f82e9e2	1.0227625
57	0x3f83575b	1.0261034
58	0x3f897d02	1.0741274
59	0x3f834d81	1.0258027
60	0x3f67b430	0.9050932
61	0x3f7ff458	0.99982214
62	0x3f859431	1.043585
63	0x3f7c14ad	0.9846905

convs.0.bn2.bias f4 [64]
0	0x3bcf3e67	0.0063245776
1	0xbc2f96c9	-0.010717102
2	0xbc6c8e98	-0.014438294
3	0xbc147d13	-0.009063023
4	0xbb3302b1	-0.0027314837
5	0xbca37fbc	-0.01995837
6	0xbc81d35d	-0.015847856
7	0x39c9eb5c	0.00038513064
8	0x3c0c703a	0.008571679
9	0x3c05487d	0.008134958
10	0x3a690171	0.00088884594
11	0x3c854943	0.016270285
12	0x3c53579f	0.012899308
13	0xbb4b87c2	-0.003105626
14	0xbcc5b9b7	-0.024136407
15	0x39acde04	0.0003297181
16	0xbccc94e9	-0.02497335
17	0x3c1cabd1	0.009562449
18	0x3a900278	0.0010987064
19	0xbc27148d	-0.010197771
20	0x390df682	0.00013538639
21	0xbd92f3db	-0.07175418
22	0xbbf27735	-0.0073994645
23	0x3c9f0d4f	0.019415526
24	0xbcf3c622	-0.029757563
25	0xbbd540fd	-0.0065079913
26	0xbb8fdbac	-0.0043902006
27	0x3879334c	5.9414e-05
28	0xbc1c8146	-0.009552306
29	0x3b905063	0.004404114
30	0x3c2aa11a	0.010414386
31	0xbd2147c7	-0.039375093
32	0xbba6b885	-0.0050879144
33	0xbc934a87	-0.017979873
34	0xbcaeb78a	-0.021327753
35	0xbc8be326	-0.017076086
36	0x3bded848	0.006800685
37	0xbc4df91d	-0.0125716
38	0xbc551714	-0.013005991
39	0x3c1e644a	0.009667465
40	0xbc04a7a1	-0.0080966065
41	0xbca8642d	-0.02055558
42	0x3c06f2a2	0.008236559
43	0x3bcea46d	0.006306222
44	0xbc65940c	-0.014012348
45	0xbc897ecc	-0.016784094
46	0x3c339abf	0.010962187
47	0x3c47c777	0.012193552
48	0xbd0ef3ea	-0.034900583
49	0xbcd78f55	-0.026313463
50	0x3c0ebe3f	0.00871235
51	0xbc28d2ab	-0.010304133
52	0x3ad95577	0.0016581257
53	0xbb15754d	-0.0022805512
54	0x3bdd223c	0.006748466
55	0x3c2f5314	0.01070096
56	0x3cd03386	0.025415193
57	0x3c79d939	0.015249544
58	0x3c1079aa	0.0088180695
59	0x3c3c1662	0.011479946
60	0xbd19dcd9	-0.037564132
61	0xbc11645d	-0.008874026
62	0xbc81f6d9	-0.015864776
63	0xbc2e9c30	-0.010657355

convs.0.bn2.running_mean f4 [64]
0	0x40b0431a	5.508191
1	0x40aaa91e	5.333144
2	0x409d851a	4.9224977
3	0x40a711a3	5.220903
4	0x40aba708	5.3641396
5	0x40abb7a0	5.366165
6	0x40a46c8f	5.138252
7	0x40b7c5f5	5.7429147
8	0x40aef167	5.466968
9	0x40b3ac54	5.614786
10	0x40b299cb	5.5812736
11	0x40b93818	5.7880974
12	0x40a8dc61	5.2769017
13	0x40a07279	5.0139737
14	0x40afe378	5.496517
15	0x40a8bce6	5.273059
16	0x40aaba40	5.3352356
17	0x40b9464e	5.789832
18	0x40a5b189	5.177922
19	0x40b126c1	5.5359807
20	0x40a27edd	5.0779862
21	0x40b8dbb0	5.7768173
22	0x40a75a61	5.2297826
23	0x40b0062e	5.5007544
24	0x40ba4259	5.820599
25	0x4094bd7e	4.6481314
26	0x40aecf4d	5.4628053
27	0x4095c084	4.6797504
28	0x40ad6229	5.4182324
29	0x4098fc80	4.7808228
30	0x409d20ac	4.9102383
31	0x40bbf32d	5.8734345
32	0x40ab0983	5.344911
33	0x40a505f1	5.1569753
34	0x40b3e7cd	5.622046
35	0x409e8c8d	4.954657
36	0x40a6adf4	5.2087345
37	0x40a27ab7	5.07748
38	0x40a53216	5.162364
39	0x40ad17ad	5.40914
40	0x40a94969	5.290211
41	0x409eaea0	4.9588165
42	0x40b40dc2	5.6266794
43	0x40b2d3b6	5.5883436
44	0x40b0d7e5	5.5263543
45	0x40b6df95	5.7147927
46	0x4099cc6f	4.8062053
47	0x40a1aef8	5.0526085
48	0x40b897ed	5.7685456
49	0x40b4f3ea	5.6547747
50	0x40b6e5ab	5.7155356
51	0x40b40a69	5.626271
52	0x40b12d0b	5.5367484
53	0x40b0c296	5.523753
54	0x40a8bbc0	5.2729187
55	0x40a59963	5.174974
56	0x40ae8942	5.454255
57	0x40b6ecdc	5.7164135
58	0x40ab8a91	5.360665
59	0x40a863bd	5.262175
60	0x40b71559	5.721356
61	0x40a04e88	5.0095863
62	0x40b83c39	5.7573514
63	0x40abec7d	5.372618

convs.0.bn2.running_var f4 [64]
0	0x41c184a5	24.189768
1	0x41a90eb8	21.132187
2	0x413f9ff4	11.976551
3	0x4134a413	11.290057
4	0x4162912c	14.160442
5	0x41c9c1e4	25.219673
6	0x4196aa7c	18.833244
7	0x4212d11b	36.704205
8	0x417fa14f	15.976882
9	0x419a507d	19.2893
10	0x422c383a	43.05491
11	0x41ad9c9f	21.701475
12	0x41871f83	16.890387
13	0x413e70e0	11.902557
14	0x41909015	18.070353
15	0x42412609	48.287144
16	0x417d1d07	15.819587
17	0x41f31fa2	30.390446
18	0x413d1517	11.817649
19	0x4187f02a	16.992268
20	0x410b46c9	8.704782
21	0x41cb911a	25.44585
22	0x416d59fe	14.834471
23	0x41e28bfb	28.31835
24	0x4193eb4a	18.489887
25	0x41234e96	10.206686
26	0x415ebac5	13.920598
27	0x411a2e3a	9.636286
28	0x4157f304	13.49683
29	0x417183b5	15.094655
30	0x40f4b179	7.646664
31	0x42028df9	32.638645
32	0x4175aaf1	15.354234
33	0x414a9fcd	12.664014
34	0x41d64fb4	26.788918
35	0x413c3b9c	11.764553
36	0x4170f341	15.059388
37	0x413d7110	11.840103
38	0x4163fee3	14.249728
39	0x417697d3	15.412066
40	0x41b7e4ac	22.986656
41	0x41774cb3	15.456225
42	0x417d4da5	15.831456
43	0x42612f6a	56.296303
44	0x420c5589	35.08353
45	0x41b83835	23.027445
46	0x41234670	10.204697
47	0x413681fa	11.406733
48	0x41dab919	27.34038
49	0x41dda26c	27.704308
50	0x41b2ccd5	22.350016
51	0x4202a642	32.66236
52	0x41a97884	21.183846
53	0x417e9e45	15.91364
54	0x41ea1f45	29.265268
55	0x41614bed	14.081037
56	0x4142e4f4	12.180897
57	0x41caf8f0	25.371552
58	0x4253726e	52.861748
59	0x415e9cdb	13.913295
60	0x41cea519	25.830614
61	0x4173ae7a	15.230097
62	0x41886971	17.051485
63	0x418b566b	17.417196

convs.1.fc_full.weight f4 [128, 169]
0	0xbbfbea24	-0.007687824
1	0xbd9e6989	-0.07734973
2	0x3dcd01f0	0.10010135
3	0x3db3e82e	0.08784519
4	0xbd8ef08c	-0.069794744
5	0x3d853576	0.065043375
6	0x3d8486ac	0.06470999
7	0x3cecb32c	0.02889403
8	0xbd2a6f27	-0.04160991
9	0xbc19c703	-0.009385827
10	0x3d6f5617	0.05843171
11	0x3d70cab0	0.058787048
12	0xbd1d9538	-0.038472384
13	0xbc0bb433	-0.00852685
14	0x3d963373	0.07334032
15	0x3d1e2f3d	0.03861927
16	0xbbcb8942	-0.0062114308
17	0xbcddf5fc	-0.027094834
18	0xbd8b39a3	-0.06798103
19	0x3d4d59fd	0.050134648
20	0xbd11ac4a	-0.0355647
21	0x3d3182bf	0.04333758
22	0x3c5200e6	0.012817597
23	0x3c02d6c1	0.007985772
24	0xbd8f0247	-0.06982856
25	0x3a851388	0.0010152915
26	0xbc9d3f8e	-0.019195344
27	0xbd707d38	-0.058713168
28	0xbd84c7db	-0.06483432
29	0xbd677d9a	-0.056516267
30	0x3d514596	0.051091753
31	0xbd127a1b	-0.03576098
32	0x3d8a2263	0.0674484
33	0xbd89749c	-0.067116946
34	0x3d7ccc40	0.061718225
35	0xbd4db04a	-0.05021695
36	0x3d49f4b9	0.04930565
37	0x3d86499a	0.06557007
38	0xbcc12be6	-0.023580503
39	0xbc4baaa3	-0.01243082
40	0x3d9da614	0.076976925
41	0xbd6a2b54	-0.057170227
42	0x3b1c256f	0.0023826023
43	0xbd42e4b8	-0.047581404
44	0x3ccc8ffd	0.024971003
45	0xbd15cb6f	-0.036570963
46	0x3d0e4f76	0.03474375
47	0x3d913a1d	0.07091162
48	0xbc54b746	-0.012983149
49	0x3c41e48f	0.011834278
50	0x3d908e27	0.070583634
51	0xbda7d1fd	-0.08194349
52	0xbd508405	-0.050907154
53	0x3d159554	0.036519364
54	0x3d34ffb2	0.044189163
55	0xbc0f4ae9	-0.008745887
56	0xbd8ee6e3	-0.06977632
57	0x3d842c59	0.06453771
58	0xbd014ae3	-0.03156556
59	0x3d16477b	0.036689263
60	0x3c023556	0.007947287
61	0x3ce5ecc3	0.028066998
62	0x3cd5f125	0.026115963
63	0x3d3e9ee5	0.046538252
64	0x3d6f9c1e	0.058498494
65	0xbd9299b4	-0.07158223
66	0xbc189fb3	-0.009315419
67	0xbd4fce35	-0.050733764
68	0x3c4b6ccd	0.012416077
69	0x3c7529f1	0.014963613
70	0xbc77fe23	-0.0151362745
71	0xbd82512b	-0.06363138
72	0xbd23df62	-0.040007956
73	0x3c4c3806	0.012464529
74	0x3c908aa1	0.017644228
75	0x3bef99a5	0.007312017
76	0xbd42a6ce	-0.04752236
77	0x3ccef480	0.025263071
78	0x3d8c59cc	0.06853065
79	0x3d2fb8b6	0.042900763
80	0xbd902c37	-0.07039683
81	0xbd60e206	-0.054903053
82	0x3d42ca42	0.04755617
83	0xbd5c0b5e	-0.053721778
84	0x3d8b6553	0.068064354
85	0x3c9172ac	0.017754875
86	0x3b9f6ac1	0.004865021
87	0x3cf2d8e6	0.02964444
88	0x3d9c9cc6	0.0764709
89	0x3a83c573	0.0010053351
90	0xbd95aed6	-0.07308738
91	0x3d8f7549	0.07004792
92	0x3d591f7d	0.053008545
93	0x3d2e29f5	0.042520482
94	0xbd9a1d03	-0.07525065
95	0x3c7b4543	0.0153363375
96	0x3d20b6cc	0.03923683
97	0x3b137d25	0.0022505012
98	0x3d93f153	0.07223763
99	0xbc9033fb	-0.017602911
100	0x3d987076	0.07443325
101	0x3c34588a	0.0110074375
102	0x3d04c804	0.032417312
103	0x3d5258d4	0.051354244
104	0x3c214cc2	0.009844961
105	0x3cee78ba	0.029110301
106	0x3d4c9992	0.049951144
107	0x3d3d08d5	0.046151
108	0x3c5fe4e1	0.013665409
109	0xbca661fc	-0.020310394
110	0x3cdbaf39	0.026816951
111	0x3d379d41	0.044827703
112	0x3d117ee4	0.035521403
113	0x3d08f7ac	0.033439323
114	0xb9663652	-0.00021954745
115	0xbd93afe6	-0.07211284
116	0x3b676075	0.0035305296
117	0x3d8330d4	0.064057976
118	0x3d96fc03	0.07372286
119	0x3ce94567	0.028475476
120	0xbd288f11	-0.041152064
121	0x3ce3b9f6	0.027798634
122	0x3a40b3f8	0.0007351036
123	0x3d047f87	0.032348182
124	0xbdae0604	-0.08497241
125	0x3cb6c044	0.022308476
126	0x3d91d690	0.07121003
127	0x3bec2ad7	0.0072072553
128	0x3d33c686	0.0438905
129	0xbd3b8943	-0.0457852
130	0x3d531e6a	0.051542677
131	0x3d625641	0.05525804
132	0xbd8c6109	-0.068544455
133	0xbd15d09c	-0.0365759
134	0xbd93af0c	-0.07211122
135	0x3997ffbc	0.000289915
136	0xbb0bd09c	-0.0021334058
137	0x3d0e0f2a	0.03468243
138	0xbd953a92	-0.07286562
139	0x3cae2614	0.021258391
140	0xbd54aae6	-0.051920794
141	0x3d7ed918	0.062218755
142	0xbbd61450	-0.006533183
143	0xbca02b1b	-0.019551804
144	0xbd387221	-0.045030717
145	0x3d651dd6	0.055936657
146	0xba3d15aa	-0.0007213006
147	0x3be6c382	0.0070423493
148	0x3d7467ec	0.05966942
149	0xbce35a83	-0.02775312
150	0xbc8fbb31	-0.017545315
151	0x3ba34ae5	0.0049832934
152	0xbd3c90bf	-0.046036478
153	0xbd93db71	-0.072195895
154	0x3d29f4ec	0.04149334
155	0xbc4784ad	-0.012177628
156	0xbcbeacc6	-0.023275744
157	0xbc735a63	-0.014853093
158	0x3d4af768	0.04955235
159	0x3d390228	0.045168072
160	0xbcfb3f69	-0.030669885
161	0x3d8dcf05	0.069242515
162	0xbc2a1e74	-0.010383237
163	0x3d62480c	0.05524449
164	0x3d3c532b	0.045977753
165	0x3d4785fd	0.048711766
166	0x3d77f47a	0.060535885
167	0xbc02bdd4	-0.007979829
168	0xbd1fb502	-0.038990982
169	0x3d501d89	0.050809417
170	0x3d2a1f3e	0.0415337
171	0x3d82bce2	0.06383683
172	0xb9e7d370	-0.00044217287
173	0x3d1c591b	0.038170915
174	0x3d34ddec	0.044156954
175	0x3d89d6bc	0.067304105
176	0x3d8c758e	0.06858359
177	0xbd32a0dc	-0.04361044
178	0xbd544aae	-0.051829033
179	0xbd87ea12	-0.06636442
180	0x3ba7e69b	0.005123926
181	0x3d966843	0.07344105
182	0x3cf915d0	0.030405909
183	0xbd04ba88	-0.032404453
184	0x3d75f68f	0.06004959
185	0xbcc1e143	-0.023666983
186	0x3c89faa1	0.016843142
187	0x3c408f12	0.011752861
188	0xbd1907fa	-0.037361123
189	0xbd82ca34	-0.063862234
190	0xbd993630	-0.074810386
191	0xbd31cbf2	-0.043407388
192	0xbc1c14be	-0.00952643
193	0x3d98296a	0.07429774
194	0x3a90b94e	0.0011041553
195	0x3b0d6bae	0.0021579075
196	0xbd38302d	-0.04496782
197	0x3d35b2c0	0.044359922
198	0x3d12b0e9	0.035813246
199	0x3c422171	0.011848793
200	0x3db9e977	0.09077733
201	0x3d3860b6	0.045014106
202	0xbd6f0ef1	-0.05836386
203	0x3bffdb5c	0.007808132
204	0xbd3d6df0	-0.046247423
205	0xbd94f6a4	-0.072736055
206	0x3c92a5d1	0.017901333
207	0x3d8c8cdf	0.068628065
208	0x3d83301f	0.06405663
209	0xbca81b5f	-0.020520864
210	0xbcd8b49d	-0.02645331
211	0xbc27e4ed	-0.010247451
212	0xbb1b066d	-0.0023654953
213	0x3c63ab35	0.013895799
214	0xbd6d9068	-0.057999045
215	0x3d8889fe	0.06666945
216	0x3d3a7dd9	0.045530174
217	0x3ba8f15c	0.0051557254
218	0x3d12ac50	0.03580886
219	0xbc66b808	-0.014081962
220	0x3b60cd16	0.0034301928
221	0xbd220579	-0.039556
222	0xbd35d327	-0.044390824
223	0x3d23555e	0.039876334
224	0xbc6d164c	-0.014470648
225	0x3d383c41	0.044979338
226	0x3d3241d2	0.043519802
227	0x3d9b2ef4	0.07577315
228	0xbbbbcde5	-0.0057313317
229	0xbc64e84c	-0.0139713995
230	0xbc3bbd96	-0.011458775
231	0x3d87303b	0.06600996
232	0xbd60d55c	-0.054890975
233	0xbd4f81ce	-0.0506609
234	0x3c19368b	0.009351383
235	0x3d2ab97b	0.041680794
236	0xbcadbec8	-0.021209136
237	0x3d6b68ad	0.057472873
238	0xbd279705	-0.040915508
239	0xbca4f7d8	-0.020137712
240	0x3cc25001	0.02371979
241	0xbda1ef3e	-0.0790696
242	0xbd725e38	-0.059171885
243	0xbd9d1668	-0.07670289
244	0xbd52995d	-0.05141579
245	0xbc0096dc	-0.007848468
246	0xbdc498ce	-0.09599458
247	0xbd80d401	-0.062904365
248	0x3c127352	0.008938627
249	0xbcacdfcd	-0.02110281
250	0xbd8f58cc	-0.069993585
251	0xbd229d3e	-0.03970074
252	0x3a5effcc	0.00085067446
253	0xbc7bafcf	-0.01536174
254	0x3bbac6e5	0.0056999796
255	0x3ceede5b	0.029158762

convs.1.fc_full.bias f4 [128]
0	0xbd4e127c	-0.050310597
1	0x3c7fd1b6	0.015613964
2	0xbcb4938b	-0.02204301
3	0x3d51b2ee	0.05119603
4	0x3d86b15d	0.06576798
5	0x3c7abce6	0.015303826
6	0xbd1cfc77	-0.038326707
7	0x3c3eaaae	0.011637373
8	0x3d730441	0.05933023
9	0x3d10b79e	0.03533136
10	0xbcbb5651	-0.022868307
11	0x3cda0094	0.026611604
12	0xbd4e8903	-0.050423633
13	0x3c64b522	0.013959201
14	0xbca929aa	-0.02064975
15	0x3d1d26ce	0.038367085
16	0x3d0b648b	0.034031432
17	0x3b7658e0	0.0037589595
18	0xbd1f47bb	-0.038886767
19	0xbd47a72a	-0.048743404
20	0xbd9d6b05	-0.07686428
21	0xbcf80768	-0.03027697
22	0xbca41673	-0.020030236
23	0xbd3fbdf0	-0.046811998
24	0xbd812533	-0.06305923
25	0x3ceab742	0.028651837
26	0xbc2a51f3	-0.010395515
27	0x3d4e8e39	0.050428603
28	0xbd26a04f	-0.040680226
29	0x3d8f8c0d	0.070091344
30	0x3d81c861	0.06337047
31	0xbce148df	-0.027500568
32	0x3c28fce2	0.010314198
33	0x3c4b44b2	0.012406515
34	0xbce8ba2e	-0.02840909
35	0x3d144c1e	0.036205404
36	0x3d07dc86	0.033169292
37	0xbcda60c5	-0.026657471
38	0xbd92d800	-0.07170105
39	0x3d824175	0.06360141
40	0xbc43dcfb	-0.011954541
41	0xbcf1f795	-0.029537002
42	0x3d6d0b3c	0.057872042
43	0xbd61ee7f	-0.05515909
44	0xbd5678b2	-0.052361198
45	0x3d63588b	0.055504363
46	0xbd87aecb	-0.06625136
47	0x3d540beb	0.05176918
48	0xbd1dd42e	-0.03853243
49	0xbd244e12	-0.040113516
50	0xbc965ca0	-0.018354714
51	0x3c0b9182	0.0085185785
52	0x39c5af3e	0.00037705334
53	0x3cf5af01	0.029990675
54	0xbce9aacf	-0.02852383
55	0x3d65eb22	0.056132443
56	0x3cc99d58	0.02461116
57	0x3c37ae2f	0.011210962
58	0xbd9b20cd	-0.07574616
59	0xbd206679	-0.039160226
60	0xbd751157	-0.05983099
61	0x3c8df1e6	0.01732726
62	0x3d397d14	0.0452853
63	0x3d4093fc	0.04701613
64	0x3bd3b167	0.006460357
65	0xbcc597ed	-0.024120295
66	0xbc569ebb	-0.013099368
67	0xbb06cb4e	-0.0020567956
68	0xbb7a9fa0	-0.0038242117
69	0xbca2704e	-0.019828942
70	0x3cf2338f	0.0295656
71	0x3ca7e84b	0.020496508
72	0x3c945b10	0.018109828
73	0x3d3c6779	0.045997117
74	0x3ce5e9a7	0.028065516
75	0xbd30a8f4	-0.043129876
76	0x3c66d6e0	0.014089316
77	0xbc1ac42a	-0.009446183
78	0xbd323377	-0.043506112
79	0xbcbb668c	-0.022876047
80	0x3c0168b9	0.007898503
81	0x3cff0181	0.031128647
82	0xbd4cf88b	-0.050041717
83	0xbcf4017c	-0.029785864
84	0x3d3acc1e	0.045604818
85	0x3d72d6d8	0.059286922
86	0xbcf52b4c	-0.029927872
87	0xbc8c2805	-0.017108927
88	0x3d4e247d	0.050327767
89	0xbd98e2f7	-0.07465165
90	0x3d228cac	0.039684936
91	0xbd52efe5	-0.051498313
92	0x3c5a2c7b	0.013316269
93	0x3d7b2ac2	0.061320074
94	0x3d63fcfc	0.055661187
95	0xbd3b41d5	-0.04571708
96	0xbc5acc60	-0.013354391
97	0x3b4e333a	0.003146364
98	0x3cdf7322	0.02727658
99	0xbd0a3355	-0.03374036
100	0xbba189df	-0.0049297656
101	0xbd1f7670	-0.03893131
102	0xbd903c75	-0.07042781
103	0x3d5f9da3	0.054593693
104	0x3c1053c9	0.008809038
105	0xbc36f5c8	-0.011166997
106	0x3d6a27e2	0.05716694
107	0x3d5d1118	0.05397138
108	0xbcdb8fde	-0.026802
109	0x3cb00d68	0.021490768
110	0x3ce74295	0.028229991
111	0x3cfbcc14	0.03073696
112	0x3c1010aa	0.0087930355
113	0xbd335bf2	-0.043788858
114	0x3c9c61af	0.019089548
115	0xbca80361	-0.020509424
116	0xbd8c4ea9	-0.06850941
117	0xbc566bd5	-0.013087233
118	0x3d2921da	0.04129205
119	0xbd806585	-0.06269363
120	0x3d837291	0.06418336
121	0xbd2d5133	-0.042313766
122	0xbc054cda	-0.008135999
123	0x3ce90877	0.02844642
124	0x3d29fc14	0.041500166
125	0x3d1a424f	0.037660893
126	0x3ca33afe	0.01992559
127	0x3d4fd0c5	0.050736208
